model_training/data.pth (torch, 10815 bytes, 6 tensors)

l1.weight f4 [8, 61]
000000 0c 34 38 bf e3 68 7e 3e c7 7d 16 40 13 fb 9f bf
       -0.7195442 0.24844699 2.3514268 -1.2498497
000010 01 f2 4b be 09 27 87 be 1e 34 91 bf 7a 70 36 bf
       -0.19916536 -0.2639697 -1.134403 -0.71265376
000020 9b 35 04 3f 23 9b e2 3e 8b 3c 6c 3d 29 1f 48 3d
       0.51644295 0.44258985 0.057674926 0.04885784
000030 34 4a d0 be 5e cd 83 bf dd 9a ff be b7 d6 2d bf
       -0.40681612 -1.0297048 -0.4992284 -0.67905754
000040 80 9e b9 3f 70 c2 16 40 09 2e 1d 40 8a bc d7 3f
       1.4501495 2.3556175 2.4559348 1.6854413
000050 2f 97 fa bf 69 3f c5 3d 46 77 c6 3f 3d 42 17 3f
       -1.9577388 0.09631235 1.5505149 0.59085447
000060 59 43 b3 be 3b af 19 3f 49 97 e4 3e c4 c2 07 3f
       -0.3501232 0.60033005 0.4464667 0.53031564
000070 8e 06 28 3f 38 50 ac be 5b 0e 66 be 88 a0 69 3f
       0.65635 -0.33654952 -0.22466414 0.91260576
000080 3d b3 34 bf cf 3d 08 3e 01 4f d7 be e1 69 53 3e
       -0.70585996 0.13304828 -0.42052463 0.20645858
000090 aa 44 9f bf 3b ec d6 3d ca 79 bc bc 9f e3 ec 3e
       -1.244283 0.10494276 -0.023007292 0.4626741
0000a0 ae e0 34 40 cf d2 09 3d bc 5b b8 bc 11 6f a0 be
       2.8262134 0.03364831 -0.02250468 -0.31334737
0000b0 95 b3 8b be 05 35 86 bf f7 98 21 bf fe c7 df 3e
       -0.27285448 -1.048493 -0.6312403 0.4370727
0000c0 31 f0 8f be d5 21 12 be 79 5c 87 be 4b 82 52 3e
       -0.2811294 -0.14270718 -0.2643774 0.20557515
0000d0 9e 62 56 bf 4a a1 ca 3e 52 05 98 be 28 69 b2 3c
       -0.8374423 0.3957618 -0.2969156 0.021778658
0000e0 9a c7 9b be 70 a5 09 3f 17 15 9b bf 00 a1 a0 bf
       -0.3042572 0.5376806 -1.2115811 -1.2549133
0000f0 b1 16 56 3e 9f 34 dc 3e 83 de 88 3f 52 63 34 c0
       0.20907094 0.43008897 1.0692905 -2.818562
000100 86 c8 54 40 65 9e c9 3e 0d d1 07 3f d3 8d 94 3f
       3.324739 0.39378658 0.5305336 1.1605781
000110 e3 27 b6 be ec d5 3c 3e 5c d0 bc 3e 80 5d 6f 3e
       -0.35577306 0.1844098 0.36877716 0.23375511
000120 46 17 da 3d 7b 1a 1e bf e7 ed b8 bf 39 02 1f 3f
       0.1064897 -0.61759156 -1.4447602 0.62112767
000130 b8 05 3d 3f 51 44 90 bc 3b 3e 24 c0 96 d0 fc bf
       0.7383685 -0.0176107 -2.5662982 -1.9751155
000140 30 9b 74 bf a5 f2 dd 3e 55 84 9a be c7 e1 4a 3f
       -0.955493 0.43349186 -0.30179086 0.7925076
000150 91 0e ca 3d 0f 20 0e 3f 78 6a fb 3e a0 67 93 3e
       0.098660596 0.5551767 0.49104667 0.28789997
000160 62 df 02 3f ed 43 94 3e 23 6c 06 bf 80 3d 54 be
       0.51122105 0.28958073 -0.52508754 -0.20726585
000170 77 bf e4 3e a1 ce d5 be 22 07 05 bd de 2f 04 3f
       0.44677326 -0.41759208 -0.032477506 0.5163554
000180 bc 4f 11 be 1c 6f 09 40 c6 0e d2 3e 27 58 1d 3f
       -0.14190573 2.1474066 0.41026896 0.61462635
000190 1d 26 b2 3f 6e 28 a9 3f 15 ca 17 bd b8 c8 91 bd
       1.3917881 1.3215463 -0.037057955 -0.07118362
0001a0 a7 af 30 bd 12 90 fb 3f cb 3b a2 3f a5 9e 90 3f
       -0.043136265 1.9653342 1.2674497 1.1298414
0001b0 e7 0e 80 3e 3d a4 cf 3e f0 2f 58 bf ff 62 07 3f
       0.2501137 0.4055499 -0.84448147 0.5288543
0001c0 9c 8b e6 3f dd b2 ac be 2d 8d 02 3f f6 32 82 3f
       1.8011355 -0.33730212 0.5099667 1.0171802
0001d0 46 ae 3f 3c 13 4d 02 bf dd 3f 90 3e cf f2 95 3f
       0.011699265 -0.50898856 0.28173724 1.1714724
0001e0 db d5 84 3f c3 18 d3 3e 79 87 f3 3e 8a 50 23 3f
       1.0377764 0.4122983 0.47564295 0.6379477
0001f0 43 63 3a 40 c8 8d f4 bf 7e 70 d9 3e 5e a0 a9 3e
       2.9123085 -1.9105768 0.42468637 0.33130163
000200 38 0c 4b 3f 94 eb 2f 3f af 7d e4 3e 52 8d cb 3e
       0.7931552 0.6871884 0.4462714 0.39756256
000210 17 2b 8b 3d 35 0b 09 3e 3a ef 8f 3f 1e d0 ef 3f
       0.06795328 0.13383181 1.1244881 1.8735387
000220 1d 2f 13 3f 6d 38 f2 3e 14 52 ea bf b8 a2 15 3f
       0.57493764 0.47308674 -1.8306298 0.58451414
000230 5b b0 c5 3e 0f f2 10 3f 06 9d 9d bf 6e 4d 8d 3e
       0.3861111 0.5661935 -1.2313545 0.27598137
000240 e4 96 30 3f 86 22 71 3f 33 04 03 bd 86 44 32 3e
       0.6898024 0.94193304 -0.031986427 0.17408952
000250 53 66 bc 3e cb 18 82 3e 6d f0 ee 3e 0a f2 a0 3f
       0.36796817 0.2540954 0.46667805 1.2573864
000260 bb 28 44 3f 9b 94 68 3f 02 33 47 3f 69 78 24 3e
       0.7662465 0.90851754 0.77812207 0.16061558
000270 98 a7 c2 3b 3e 86 fd 3d 22 8b e1 3f 71 5e e4 3e
       0.005940389 0.1237912 1.7620585 0.44603303
000280 2b d0 a5 3f 4d a6 38 c0 99 92 c3 bd db 8d 95 bd
       1.2954153 -2.8851502 -0.09549446 -0.073024474
000290 73 b3 17 3e 16 13 97 3f 11 cd ef 3f dc 63 2c 40
       0.14814548 1.18027 1.8734456 2.693595
0002a0 e5 88 90 bf 78 cb c3 bd 74 de d5 3e c0 80 a9 3f
       -1.1291777 -0.09560293 0.4177128 1.3242416
0002b0 4f bb 76 3e 18 c2 c3 bf 29 4b b4 3f bb 02 ab 3e
       0.2409489 -1.5293608 1.4085437 0.3340052
0002c0 55 f8 32 3f 3b 91 dd 3d fc ae a6 3f 17 34 05 3f
       0.69910175 0.10818716 1.3022151 0.5203261
0002d0 35 c9 5d 3f e2 67 24 3f 85 e6 08 3f 50 53 ae 3e
       0.8663514 0.6422101 0.53476745 0.34047937
0002e0 36 aa 40 3f 46 73 63 3f b0 d5 1f 40 fe db c0 bd
       0.7525972 0.8884777 2.4974174 -0.0941696
0002f0 e4 85 86 3c 9c e7 3c bf 6f 48 f2 3e 53 e7 78 3f
       0.016421266 -0.7379091 0.47320887 0.9722797
000300 e4 4a 29 3f 2a b0 18 40 4d 82 ee bd 74 47 26 be
       0.661299 2.3857522 -0.11645947 -0.16238195
000310 8f a7 70 bf 09 7d fd bd 98 77 89 be 25 58 42 3f
       -0.94005674 -0.12377364 -0.26849055 0.7591575
000320 92 7f d1 bf 83 ff 91 be 09 e8 2e 40 28 d3 c2 3f
       -1.6367056 -0.28515252 2.7329123 1.522069
000330 9b 59 5c bf 61 64 dd 3f 4e 91 f5 3f fd 49 12 be
       -0.8607423 1.7296258 1.9184968 -0.14286037
000340 f7 2b cf 3e 9c 13 80 3d d7 62 d0 3e 41 4c 83 3f
       0.4046323 0.0625374 0.4070041 1.0257646
000350 37 45 c4 3f 6a d9 3f 3f 69 6e b3 3f 85 6e cb 3e
       1.5333623 0.7494112 1.401807 0.39732757
000360 6f 6e 67 bf 6c 5b 91 bc 85 e7 4d bf c6 c9 52 bf
       -0.90402883 -0.017743789 -0.80431396 -0.8233913
000370 71 94 19 be ff 49 ae be 03 44 d3 bf 40 55 8d 3f
       -0.14998032 -0.3404083 -1.650513 1.1041641
000380 08 d3 41 be f3 b0 f0 bd 81 f7 f4 bd e8 b7 e8 be
       -0.18928158 -0.117525004 -0.1196127 -0.4545281
000390 c1 95 19 40 f6 85 1a c0 14 c1 88 3e c8 a4 d2 bd
       2.3997653 -2.4144263 0.26709807 -0.10285336
0003a0 35 59 8c be 64 c2 f3 bb 8f 9a 0a bf 5d 45 28 40
       -0.2741181 -0.0074389447 -0.5414209 2.6292336
0003b0 e1 88 e6 3e 40 c1 1c 3f 79 a7 09 be 89 8f a0 be
       0.45026305 0.61232376 -0.13442792 -0.3135951
0003c0 3f 76 73 3f cc ca 35 bf 61 0c 1c bf 4f 62 85 be
       0.95102304 -0.7101257 -0.6095639 -0.26051566
0003d0 2c fa 8a be 3d 36 80 3f 98 32 8e 3f 99 23 8b 3e
       -0.2714399 1.0016552 1.110919 0.27175596
0003e0 24 51 b5 3e 59 ea ac 3e da bd 6b 3f 5b 96 98 3f
       0.35413468 0.33772543 0.92086565 1.1920885
0003f0 2c e2 6a 3f 09 46 45 3f 7a d1 fa 3e 15 44 8e be
       0.9175136 0.7705999 0.48987943 -0.27786317

l1.bias f4 [8]
000000 c3 7f aa 3f 69 6f c5 3f 0c b5 b3 3f 5d 08 be 3f
       1.332024 1.5424625 1.4039626 1.4846302
000010 37 3a f8 3f 83 29 e4 3f a6 e3 e6 3f 2d ab a9 3f
       1.9392766 1.7825168 1.8038223 1.3255364

l2.weight f4 [8, 8]
000000 9f bc 4b 3f cb f0 0d 40 08 f4 c2 3f fc b5 f8 3f
       0.7958469 2.2178218 1.5230722 1.9430537
000010 24 a5 84 bf 1b 50 63 bd b8 6c e4 3f 06 a4 f8 bf
       -1.0362897 -0.055496316 1.7845678 -1.9425056
000020 7e ce 34 40 7e 79 11 c0 90 84 05 40 ce 27 f5 3f
       2.8251033 -2.2730403 2.086216 1.9152772
000030 fb 74 42 3f d8 df cb 3e 71 37 cf bd 27 d2 14 3e
       0.7595975 0.39819217 -0.101179965 0.14533292
000040 05 d8 be 3f 2b 42 9d be 2a 64 24 40 ac 52 01 3e
       1.4909674 -0.30714545 2.5686135 0.12629193
000050 15 17 0e 40 e2 ce a3 3f 22 1b 92 bf c9 63 10 be
       2.2201588 1.2797511 -1.141453 -0.14100565
000060 0d f5 c0 3f dd c5 b2 3f 97 ba 33 3e 20 8e d1 bf
       1.5074784 1.3966633 0.17551647 -1.6371498
000070 00 ab de 3e 77 97 54 3f 26 72 49 40 97 b0 75 40
       0.43489838 0.83043617 3.147592 3.8389032
000080 5a aa 08 be e2 e9 43 40 2a 4b 06 c0 4d bf 59 3f
       -0.13346234 3.06115 -2.0983377 0.85057527
000090 07 bc 4b 40 d4 49 1b 40 9c 6e 0e bf 80 11 7a 3f
       3.1833513 2.426381 -0.55637527 0.9768295
0000a0 ed 41 c0 3e 71 3f 27 3f 8f c7 6a 3f b3 9d 40 40
       0.37550297 0.6533118 0.9171075 3.0096252
0000b0 03 8a 23 be be bc 07 c0 48 d9 01 3f 21 73 eb 3f
       -0.15970616 -2.120895 0.5072217 1.839451
0000c0 76 f2 1e c0 f5 10 a6 3e 17 ef 41 40 17 8f 90 3f
       -2.4835486 0.32434812 3.030218 1.1293668
0000d0 b7 ce d4 3f cf 6c 24 40 53 7c e3 bd b3 79 a4 be
       1.6625584 2.5691411 -0.11107697 -0.321241
0000e0 08 fb 29 40 cf f1 1f bf 5f 72 bf bf 1d 4e 8c 3f
       2.6559467 -0.62478346 -1.4956778 1.0961338
0000f0 e5 bf 42 3f 8c 95 b6 3f 7d d0 99 3f b2 c3 8a bf
       0.7607406 1.4264388 1.201675 -1.0840971

l2.bias f4 [8]
000000 9c ed 42 3f f3 47 fd bc 43 59 42 3f bd d0 b7 3f
       0.76143813 -0.030918097 0.7591745 1.4360577
000010 7a 52 82 3f 07 15 c5 3e 9f 1a 5e 3f b1 51 19 3f
       1.018142 0.38492605 0.8675937 0.59890276

l3.weight f4 [80, 8]
000000 40 39 4d 3e 56 cd 1d bf fe 68 e4 bd 4f 8b 82 bf
       0.2004137 -0.6164144 -0.11152838 -1.0198764
000010 e0 aa f7 bf 81 46 11 3f bf 13 ac 3e fe 2e 92 bf
       -1.9349022 0.56748205 0.33608815 -1.1420591
000020 fa 9e 11 3d 0f ee ad bf 05 58 14 c0 d5 e4 e4 bd
       0.035552002 -1.3588275 -2.3178723 -0.11176459
000030 e7 54 81 bf 76 03 6d 3e 55 b6 94 3d 96 6f 3c bf
       -1.0104035 0.23145851 0.072613396 -0.73607767
000040 df 8d 4a 3e 8c 73 4b 3e a1 46 f6 3e 5f 36 8f bf
       0.19780682 0.19868296 0.4810076 -1.1188468
000050 f8 88 33 c0 4e c7 02 3e ee 5a b4 3c 80 bf b9 be
       -2.805235 0.12771341 0.022016015 -0.36278915
000060 fc a4 ff 3e cc 57 a3 bf 36 eb 1b c0 76 0d 76 bf
       0.4993056 -1.2761168 -2.4362311 -0.9611429
000070 e7 89 01 bf dc 1c db 3e b5 7c a0 bd 0c 70 a1 be
       -0.5060105 0.42795455 -0.07836286 -0.31530797
000080 af c0 02 3f fe dc 7e bd fb 6c 51 bf 60 b0 bb bf
       0.5107526 -0.062222473 -0.81806916 -1.46632
000090 17 19 7a bf 8b 69 a3 bd 07 52 72 3e ad 63 2b bd
       -0.97694534 -0.07979115 0.23664103 -0.041843105
0000a0 9c a7 be 3e b6 0c dc bd 2f 2b 1b c0 1f 93 e8 be
       0.3723725 -0.10744612 -2.4245107 -0.45424744
0000b0 40 5d b0 bf e6 e3 6f bc eb 63 0b bf a7 c6 bc 3e
       -1.3778458 -0.014641738 -0.5444934 0.3687031
0000c0 bc ff 43 3e bd dd 0b be 6f 46 46 bf ca bd d2 be
       0.19140524 -0.13658805 -0.77451223 -0.41160423
0000d0 4f 34 1e c0 e0 13 f1 be a9 fe 5b 3d 81 4f 01 3f
       -2.4719427 -0.47085476 0.05370966 0.5051194
0000e0 f0 01 82 be 8f 7c ac 3e dd b8 a9 be d5 24 3a bf
       -0.25392103 0.3368878 -0.33148852 -0.7271245
0000f0 82 3e 89 bf 5d 71 a4 be 89 f3 20 3d 0c 7d 53 be
       -1.0722201 -0.3211774 0.039294753 -0.2065317
000100 af c0 8a 3e 87 40 7d be 97 3e a7 bf ed 4d 34 bf
       0.2710013 -0.24731646 -1.3065976 -0.70431405
000110 6c d5 5d c0 de 29 24 3f d7 4e 2c be c2 55 47 3d
       -3.4661512 0.64126384 -0.1682695 0.04866577
000120 b6 30 93 be 0d 2a 8f be 85 82 b6 bf 86 29 1e bf
       -0.287481 -0.2796177 -1.4258581 -0.6178211
000130 7b f3 d4 be c1 d3 65 3d a3 7a 25 3e 46 e0 ed be
       -0.4159201 0.056110147 0.16160063 -0.4646017
000140 8a e8 6a 3e 90 14 4d bf f1 e5 f2 bd 03 fa 69 bf
       0.22940269 -0.801095 -0.11860264 -0.9139711
000150 7e d4 32 bf 03 19 17 bf 93 af 0e 3f 3a 83 19 bf
       -0.6985549 -0.5902254 0.55736655 -0.5996586
000160 08 11 63 3e 7a cc a7 bf f9 f2 14 c0 04 40 ba be
       0.22174466 -1.3109276 -2.3273299 -0.36376965
000170 ff bc 14 bf c8 f2 fe be 89 b5 e6 bd 2e 19 52 3f
       -0.58100885 -0.49794602 -0.11265094 0.8206967
000180 e6 ff 27 3f a0 43 65 bf b3 b3 d6 bf 77 37 0b bf
       0.65624845 -0.8955631 -1.677359 -0.5438151
000190 32 cf 06 c0 1d cb 74 be ab 39 f7 3e 89 2e e8 bd
       -2.1063962 -0.23905607 0.48286185 -0.11337001
0001a0 67 a6 0d bf 9e 6e a3 3d c9 a4 75 3e f3 b5 07 c0
       -0.55332035 0.07980083 0.23988642 -2.1204803
0001b0 58 ba e6 bd d9 ca 28 be 40 e8 29 3f 50 47 98 bf
       -0.11266011 -0.1648363 0.6637001 -1.1896763
0001c0 a0 fc 29 c0 f3 e5 5f be 90 c7 f4 bd 8b fd 14 bf
       -2.656044 -0.21865062 -0.11952126 -0.58199376
0001d0 da a4 13 3f e7 9b ed bf a2 5e 7e 3e eb 88 e9 bd
       0.5767342 -1.8563203 0.24840787 -0.11403068
0001e0 8b f4 91 bf e0 0e 16 3f 89 cb 45 3f 66 5e 11 c0
       -1.1402754 0.5861645 0.77263695 -2.2713866
0001f0 3f 82 ff be 71 9e 83 bf 9a 2d a6 3e 0d 98 02 be
       -0.49904057 -1.0282727 0.32456666 -0.12753315
000200 0a c7 8a bd c8 57 4e bf 94 b6 20 3e d8 07 29 c0
       -0.06776245 -0.80602694 0.15694648 -2.6411037
000210 ec 44 f1 3e 88 fc b1 be dd 07 9e 3e c5 de d9 bd
       0.47122896 -0.3476298 0.30865374 -0.10638193
000220 2e 50 de bd 08 50 73 3d cc ca ff 3e 12 33 6e c0
       -0.10855137 0.059402496 0.4995941 -3.721867
000230 ca 16 11 3e 75 b1 c9 bf aa af 15 3f 82 ee 62 3e
       0.1416885 -1.575728 0.5847117 0.22161296
000240 48 ac 7b bf b2 0e 21 3e 86 51 65 bc 47 12 e2 bf
       -0.98309755 0.15728262 -0.0139964875 -1.7661828
000250 41 89 64 3e 23 dd 8f bf 48 db 84 bd 6e 1e 4f 3f
       0.22317983 -1.123936 -0.06487137 0.80905807
000260 64 9e 69 be 14 01 ce 3e 2c 69 1c 3f 2a 48 d1 bf
       -0.22814327 0.40235198 0.6109798 -1.6350148
000270 e7 69 b3 be 34 16 68 c0 96 bf eb 3d 99 9d 27 3f
       -0.35041735 -3.6263552 0.115111515 0.6547485
000280 21 50 52 c0 56 89 b2 3e 12 dc 2b 3f 89 c6 be bf
       -3.2861407 0.34870404 0.67132676 -1.4904338
000290 d7 4e b5 3d 45 a7 f0 bf 34 dc b6 3d db 3f 0f 3f
       0.08852928 -1.8801047 0.08928719 0.5595681
0002a0 98 17 7b bd 7f 5c 25 3f 03 36 4c bd b6 30 1b c0
       -0.061301798 0.6459426 -0.049856197 -2.424848
0002b0 08 e7 34 bf 75 b1 55 bc 83 c8 ac 3c cb b3 bc 3d
       -0.70665026 -0.013042797 0.021091705 0.0921398
0002c0 27 a0 2c c0 1b 9d 78 be 9e 06 cc 3e 76 40 08 c0
       -2.697275 -0.24278681 0.398488 -2.1289344
0002d0 51 a8 48 3f 37 21 8d bf 6a 90 01 3f 45 ea 87 be
       0.7838183 -1.1025761 0.50610983 -0.2654592
0002e0 51 bc d2 be a2 d0 03 be 79 16 24 3f e5 4a 08 c0
       -0.411593 -0.12872556 0.6409679 -2.1295712
0002f0 56 51 f2 3e b3 2c 47 c0 bc 28 ee 3e 31 3e be be
       0.4732768 -3.1121032 0.46515453 -0.37156823
000300 b1 30 9e bf c6 9c 08 bf 3c aa 92 3e b2 7e 93 bf
       -1.235861 -0.5336422 0.28645504 -1.1523039
000310 4c c4 20 3f a1 da 6f c0 d0 f7 ce 3d 85 53 2a 3f
       0.62799525 -3.747719 0.1010586 0.6653369
000320 ee 18 0b 3f af 03 cd 3a b7 a1 a8 3e 6a 79 00 c0
       0.54334915 0.0015641357 0.3293588 -2.0074105
000330 f6 f2 d0 be 9d 6e cb bf 3f ea 2a 3f 61 3e cb be
       -0.40810364 -1.5893131 0.6676368 -0.3969603
000340 dd b6 ae 3e 79 fb f4 bd 9f cb db 3e 79 33 a5 bf
       0.3412389 -0.11962027 0.42928788 -1.2906333
000350 6f a2 43 bf 85 d9 6e 3e 12 8b 28 bf f5 50 3c bf
       -0.7641973 0.23325165 -0.65837204 -0.7356103
000360 0e 60 9f bd 20 3e 19 bf bb d9 ae be 2d 21 9f 3c
       -0.07781993 -0.5986042 -0.3415049 0.019425
000370 63 c6 2f be dd 00 42 bf 1e 05 f9 bf 72 5d 98 be
       -0.17165522 -0.7578257 -1.9454687 -0.29758793
000380 93 c4 2d be ab 6d 1c 3f f0 b2 f7 3e ec a8 88 bf
       -0.16969518 0.6110484 0.48378706 -1.0676551
000390 73 bb ef bf af 69 aa be 4a ea 45 bf 56 4c a1 3e
       -1.872908 -0.33283755 -0.7731062 0.31503552
0003a0 0f 45 fe 3e ea 69 22 bf 83 eb 46 bf e6 d0 b9 bf
       0.49662063 -0.6344286 -0.7770311 -1.4516876
0003b0 03 5a 2f 3e f8 47 2c bd f4 43 9d bf 12 aa 60 3e
       0.1712418 -0.042060822 -1.2286363 0.21939877
0003c0 00 48 c7 3e bb b3 3c 3e 96 44 a4 be 19 62 e0 bf
       0.3892212 0.18427937 -0.32083577 -1.7529937
0003d0 f3 d6 6b be f4 24 35 bf 1e cb c4 be 17 cd f8 3e
       -0.23031215 -0.7075951 -0.38436216 0.4859397
0003e0 81 63 2d 3e fc 00 c1 3d 8e 5f b8 be 58 40 42 bf
       0.16932489 0.09424016 -0.36010402 -0.7587943
0003f0 ad 4c af be 6b f9 09 bf f9 1f 35 c0 42 2c 02 3f
       -0.34238186 -0.53896207 -2.8300765 0.5084878

l3.bias f4 [80]
000000 42 43 d0 be d5 97 55 be ca 5c f3 3d db cb 6d be
       -0.40676314 -0.208587 0.118829325 -0.23222296
000010 4b c5 08 3e e5 fe 9e bd fb ee 05 3c 6b 14 17 be
       0.13356511 -0.07763461 0.008174653 -0.14753883
000020 de 16 39 be 95 78 42 bd 21 2f ea 3a 43 b3 68 be
       -0.1807513 -0.047478277 0.0017866829 -0.22724633
000030 bb ad 71 bd c3 ed cf 3d 47 30 fb 3e 64 2d 2a be
       -0.059003573 0.10152771 0.4906027 -0.16618878
000040 a3 66 01 be c7 d5 8d be 33 01 c7 3e 23 6a a8 be
       -0.12636809 -0.27702162 0.38868102 -0.32893476
000050 0d 72 5b 3d 92 21 1b be 5f d2 30 3e 4c 8a 9e be
       0.053575564 -0.15149525 0.1726775 -0.30964887
000060 cb 34 f1 bd 59 6c 99 be ea 88 18 ba fd 2f 74 be
       -0.117776476 -0.29965475 -0.00058187416 -0.23846431
000070 29 5b 26 be 0e 2a 84 3e 12 31 fd bc de 0c 2f 3e
       -0.16245712 0.25813335 -0.030907188 0.17094752
000080 4e 0a 56 be 2c c2 53 bd bd e1 ad be 60 4c 97 be
       -0.20902368 -0.05169885 -0.33961287 -0.29550457
000090 25 33 ac be dc 05 83 be a2 66 93 3e 3d 7c e3 3e
       -0.3363277 -0.25590408 0.2878924 0.44430724
0000a0 c5 52 f7 3e d9 95 a6 bd e4 5b 8a bc d7 23 20 be
       0.48305336 -0.0813405 -0.01688952 -0.15638672
0000b0 4a d9 4d be 78 9d dd be 17 11 e3 bc 4c 94 c3 be
       -0.2010242 -0.43284202 -0.02771811 -0.3819908
0000c0 29 cb 9f be 54 8f bd 3d 38 02 dd 3d e8 53 6a be
       -0.31209686 0.09255853 0.10791439 -0.2288357
0000d0 7a 5f bb 3d 7a ed 6c be bb 80 55 3e 83 86 7d 3e
       0.0914907 -0.23137465 0.20849888 0.24758343
0000e0 51 63 a1 be b6 34 41 bd b9 6e ce be 26 31 86 3e
       -0.31521085 -0.04716941 -0.4031885 0.26209372
0000f0 8e 9f 86 be 2a df 97 be a6 e1 fb bd 00 14 59 3d
       -0.26293606 -0.29662448 -0.122988984 0.05299759
000100 a5 f9 7a be 26 9c 11 3e 92 21 7c 3e f6 33 5a bd
       -0.24509294 0.14219722 0.24622181 -0.05327221
000110 92 92 80 3e a0 26 2c 3e 78 bf 13 3d 0e b8 31 be
       0.25111824 0.1681161 0.03607127 -0.17355368
000120 df 22 2f 3c 5f 27 5e 3e 36 46 30 3e 1a b0 d0 3d
       0.010689466 0.21694706 0.17214283 0.10189839
000130 86 4a 1d 3d 34 f1 0b be 5b 9e 86 3e db 87 8b 3e
       0.03840115 -0.1366623 0.2629269 0.27252087
